…
cution":{"iopub.status.busy":"2024-09-05T06:27:55.089606Z","iopub.execute_input":"2024-09-05T06:27:55.090041Z","iopub.status.idle":"2024-09-05T06:27:55.098903Z","shell.execute_reply.started":"2024-09-05T06:27:55.089959Z","shell.execute_reply":"2024-09-05T06:27:55.097755Z"},"trusted":true},"execution_count":21,"outputs":[{"name":"stdout","text":"Model: \"sequential\"\n_________________________________________________________________\nLayer (type)                 Output Shape              Param #   \n=================================================================\nconv2d (Conv2D)              (None, 26, 26, 32)        320       \n_________________________________________________________________\nmax_pooling2d (MaxPooling2D) (None, 13, 13, 32)        0         \n_________________________________________________________________\nconv2d_1 (Conv2D)            (None, 11, 11, 64)        18496     \n_________________________________________________________________\nmax_pooling2d_1 (MaxPooling2 (None, 5, 5, 64)          0         \n_________________________________________________________________\nflatten (Flatten)            (None, 1600)              0         \n_________________________________________________________________\ndense (Dense)                (None, 128)               204928    \n_________________________________________________________________\ndropout (Dropout)            (None, 128)               0         \n_________________________________________________________________\ndense_1 (Dense)              (None, 64)                8256      \n_________________________________________________________________\ndropout_1 (Dropout)          (None, 64)                0         \n_________________________________________________________________\ndense_2 (Dense)              (None, 10)                650       \n=================================================================\nTotal params: 232,650\nTrainable params: 232,650\nNon-trainable params: 0\n_________________________________________________________________\n","output_type":"stream"}]},{"cell_type":"markdown","source":"### Model fitting","metadata":{}},{"cell_type":"code","source":"history = model.fit(X_train, y_train_enc,\n             
…
